split_boundaries: [0, 2, 4, 6, 8, 10]
{'1': [0, 1], '2': [2, 3], '3': [4, 5], '4': [6, 7], '5': [8, 9]}
FF nsa
MLP(
  (nsa1): ProgammedController(
    (program_key_u): Linear(in_features=1024, out_features=50, bias=True)
    (program_key_v): Linear(in_features=1024, out_features=50, bias=True)
    (program_key_s): Linear(in_features=1024, out_features=50, bias=True)
    (res_s): Linear(in_features=1024, out_features=1, bias=True)
    (p2ku): Linear(in_features=1024, out_features=5, bias=True)
    (p2kv): Linear(in_features=400, out_features=5, bias=True)
  )
  (nsa2): ProgammedController(
    (program_key_u): Linear(in_features=400, out_features=50, bias=True)
    (program_key_v): Linear(in_features=400, out_features=50, bias=True)
    (program_key_s): Linear(in_features=400, out_features=50, bias=True)
    (res_s): Linear(in_features=400, out_features=1, bias=True)
    (p2ku): Linear(in_features=400, out_features=5, bias=True)
    (p2kv): Linear(in_features=400, out_features=5, bias=True)
  )
  (linear): Sequential(
    (0): ProgammedController(
      (program_key_u): Linear(in_features=1024, out_features=50, bias=True)
      (program_key_v): Linear(in_features=1024, out_features=50, bias=True)
      (program_key_s): Linear(in_features=1024, out_features=50, bias=True)
      (res_s): Linear(in_features=1024, out_features=1, bias=True)
      (p2ku): Linear(in_features=1024, out_features=5, bias=True)
      (p2kv): Linear(in_features=400, out_features=5, bias=True)
    )
    (1): ReLU(inplace=True)
    (2): ProgammedController(
      (program_key_u): Linear(in_features=400, out_features=50, bias=True)
      (program_key_v): Linear(in_features=400, out_features=50, bias=True)
      (program_key_s): Linear(in_features=400, out_features=50, bias=True)
      (res_s): Linear(in_features=400, out_features=1, bias=True)
      (p2ku): Linear(in_features=400, out_features=5, bias=True)
      (p2kv): Linear(in_features=400, out_features=5, bias=True)
    )
    (3): ReLU(inplace=True)
  )
  (last): ModuleDict(
    (All): ProgammedController(
      (program_key_u): Linear(in_features=400, out_features=50, bias=True)
      (program_key_v): Linear(in_features=400, out_features=50, bias=True)
      (program_key_s): Linear(in_features=400, out_features=50, bias=True)
      (res_s): Linear(in_features=400, out_features=1, bias=True)
      (p2ku): Linear(in_features=400, out_features=5, bias=True)
      (p2kv): Linear(in_features=2, out_features=5, bias=True)
    )
  )
  (nsa_last): ProgammedController(
    (program_key_u): Linear(in_features=400, out_features=50, bias=True)
    (program_key_v): Linear(in_features=400, out_features=50, bias=True)
    (program_key_s): Linear(in_features=400, out_features=50, bias=True)
    (res_s): Linear(in_features=400, out_features=1, bias=True)
    (p2ku): Linear(in_features=400, out_features=5, bias=True)
    (p2kv): Linear(in_features=2, out_features=5, bias=True)
  )
)
#parameter of model:  423539
no learnable params:  134502
Task order: ['1', '2', '3', '4', '5']
====================== 1 =======================
#reg_term: 0
Epoch:0
LR: 0.001
Itr		Time		  Data		  Loss		Acc
[0/99]	0.6055 (0.6055)	0.0935 (0.0935)	0.693 (0.693)	46.09 (46.09)
[98/99]	0.0472 (0.0533)	0.0015 (0.0024)	0.000 (0.074)	100.00 (97.17)
 * Train Acc 97.173
…
